src/emotion_cnn.pth (torch, 24453 bytes, 6 tensors)

cnn.0.weight f4 [16, 1, 5, 5]
00000000: 96de 15be 1dda f1bc 10a2 21be 0afc 4ebe
00000010: fa3c 45be 6fa8 63be fab4 37be f58b d7bd
00000020: 1e56 48be cba3 4d3d d76f 20be 23ba 96bd
00000030: 49ef df3d bf00 d13d bae9 43be b4bb ff3c
00000040: 1a78 adbd 3ac6 243e 131c 093e 0c83 cc3c
00000050: 81e6 a13e 9faf 943d fcee 773e 3f52 8f3e
00000060: d58e 973d ce2d 973d 3b07 5bbe a244 573e
00000070: b267 a2bc d319 3abd 58ca d33d 2c46 34be
00000080: 6400 823e 4aeb f1bd ce0b 05be afc0 c6bc
00000090: 5ea5 b0bd 52f5 b13e 9b73 8ebd 6d74 51be
000000a0: c5b0 f03d b746 19be 29ca 613e 8ec6 783e
000000b0: 3cf3 32be e69f 3ebe a83e 06be 59c9 5a3e
000000c0: a724 91bd f2f4 1e3e 382c e8bd f24d 34be
000000d0: 436f 5f3b 5332 8abe 0aa5 efbc 253b 453e
000000e0: ec5f 6b3c 61a2 863e e40b 153c 899e d33d
000000f0: 636b 4a3e af0a c2bd a3cc e23d 325d fb3b
00000100: 852a 063d d184 963e 3124 5fbd 9803 973e
00000110: 8953 dcbd 178f 6e3e cd7c ac3d face 8bbe
00000120: ee37 06be 8440 81be ceed bbbd f538 f7be
00000130: 1542 eabd 9040 82be 66c4 7bbe 75a4 323d
00000140: ad89 e5be 169f 9bbd fd8c 443e eb3f ddbc
00000150: b0b7 283b 964c 84be b413 923c 2738 1e3e
00000160: d7e3 1d3e e000 013e 24f1 5e3d 3072 533e
00000170: 179b a43e 386e eb3e 85e2 843e cfbe c4be
00000180: 6fd8 7d3d 0446 b23e e727 f03e a31b b53e
00000190: bb6d 90bc f968 ca3d d08f febd 1599 21be
000001a0: b6c4 29be 0a18 233c f205 873d 022b 233e
000001b0: d2a8 81bd 16f6 85bd a8aa cfbd 9368 8c3c
000001c0: fed4 15be 6185 8ebb c616 0a3c ffb2 303e
000001d0: d46e 36be 12f2 18be 63da 6a3d 4893 5abe
000001e0: 3fa3 45be 917d 633d 28d8 bf3c 16c7 cabd
000001f0: 4246 533d f64c 6bbb 3e19 ca3e 45fe f93e
00000200: 41cf 8b3e 619f 4a3e c2e0 92be 241b 9a3e
00000210: 16aa 843e 21f0 d23e bd3e 853e 9e6c 41be
00000220: f50f a53e 5637 973e 1f21 41be 8e1a 48be
00000230: a84a 5d3d 2fea 043e 9b56 653e 784c 5cbe
00000240: 7eb7 cebd 7b28 30be 2d14 863d 1978 e0bc
00000250: aaea a8bc 8b52 643c 1b6b 9dbe f224 45be
00000260: 6c44 13be 2e82 19be 8624 06be 271a c03d
00000270: 0681 0d3d e0c1 b7bd a4e8 77be 0bcb 68be
00000280: c75e ce3d 3375 24be ae6a 363e eff9 2a3e
00000290: 78bb a93d f3f0 5b3d 4491 063e 2ccf 9b3e
000002a0: 9a80 a93e 0060 403e 184f 1e3e f464 05be
000002b0: fcc5 1bbe 3f9d 053d dc5c 553d abfc 953d
000002c0: bb51 03bd c326 6f3e d87c 503e 325e aa3e
000002d0: 244a 4abd 9798 933d 6de7 4f3e f12d b73e
000002e0: 14dc af3e dd57 80be aa8f 96bd f9af 1cbe
000002f0: fab0 3bbe cf73 95be 621a 9bbd e899 91bc
00000300: d386 463e e0fb 713e 1fbd 483e b7a8 85be
00000310: 384e 9cbe e39a 15be 1a56 b73d c798 b9bc
00000320: c21a b4be cf19 c3be 14d3 3ebe f701 00bf
00000330: 7e56 16bf da0d adbd 923f f83c 72fa 313d
00000340: db8e 13be a03a a23d 595f ba3e bf6e fa3e
00000350: 9e12 763e 539f 573e 9581 de3d 9bfa 8d3e
00000360: 2613 cc3e b66e 683e 82f5 78bc abd5 6d3e
00000370: 0fd8 9d3d 60b4 0ebd dfee 133d 6f1a 8e3e
00000380: 4a77 4a3e 667e 47be 23b0 b33d 19e9 5cbd
00000390: 3991 04be 953d f8bd b662 003e 756b 623e
000003a0: 5902 883e 0a61 1ebc 54ec 883e 345b 75bc
000003b0: 3230 5dbc c239 bc3e e090 c03e 0dad b43e
000003c0: 5827 113e 76de d63d 25bd 89bd d730 d23d
000003d0: 1cd6 5cbe 6e40 54be c490 4bbe 4281 d6be
000003e0: 0da6 ddbe 1127 b0be 35b0 a53e ecfe 833e
000003f0: 071e f83d a11f 443d f47e 7f3e c872 1e3d
-0.14635691 -0.02952295 -0.15784478 -0.20213333 -0.19261542 -0.22232221 -0.17940131 -0.105247416
-0.19564101 0.050205033 -0.15667664 -0.073597215 0.10934312 0.102052204 -0.19132128 0.031217434
-0.08470173 0.16091242 0.13389616 0.024964832 0.31621173 0.072600596 0.24212259 0.27992436
0.0740029 0.073817834 -0.21389477 0.21022275 -0.019824836 -0.045434784 0.103413284 -0.17604893
0.25390923 -0.11812456 -0.12992784 -0.0242618 -0.08625291 0.34757477 -0.06955644 -0.20454569
0.11752466 -0.14968382 0.22049774 0.24294493 -0.17475599 -0.18615684 -0.13109839 0.2136587
-0.07087069 0.15523127 -0.11336559 -0.17607859 0.0034093417 -0.2699152 -0.029253501 0.19260843
0.014366131 0.2629576 0.009097073 0.103329726 0.19767527 -0.09474694 0.110741876 0.007671022
0.032755394 0.29398206 -0.054477874 0.2949493 -0.107581206 0.23296772 0.08422241 -0.27306348
-0.13107273 -0.25244534 -0.09176217 -0.48285642 -0.114383854 -0.25439882 -0.24586639 0.04361387
-0.448316 -0.075987026 0.19194408 -0.027008018 0.0025744252 -0.2583968 0.01783166 0.15451108
0.15418945 0.1259799 0.05442919 0.20649028 0.32149574 0.45982528 0.2595407 -0.38426825
0.061973985 0.34819043 0.46905443 0.35372648 -0.017630449 0.09883303 -0.12429774 -0.15781052
-0.16578946 0.009954462 0.06592931 0.15934375 -0.06331028 -0.06541078 -0.10139972 0.017139709
-0.14632031 -0.004349396 0.008428281 0.17255782 -0.17815715 -0.14936092 0.057337176 -0.21345246
-0.19300555 0.05553967 0.023418501 -0.09901254 0.051580675 -0.0035904027 0.39472383 0.48826805
0.2730656 0.1978736 -0.28687102 0.30098832 0.25911015 0.4119883 0.26024428 -0.1888909
0.32238737 0.29534405 -0.18860291 -0.1954138 0.054026276 0.12979959 0.22396319 -0.21513546
-0.10093592 -0.17202942 0.06546817 -0.027401017 -0.020619709 0.013935695 -0.30745777 -0.19252375
-0.1438157 -0.14991066 -0.1309987 0.09379988 0.034546874 -0.089725256 -0.24209839 -0.22733705
0.10076671 -0.16060333 0.17814133 0.16696905 0.0828771 0.053696584 0.13141352 0.30431497
0.33105928 0.18786621 0.1545986 -0.13026792 -0.15212244 0.032620665 0.05209051 0.07323583
-0.032060366 0.2335463 0.20360124 0.3327499 -0.049387112 0.072068386 0.20303126 0.35777238
0.34347594 -0.25067034 -0.073516205 -0.15301503 -0.1832923 -0.29189917 -0.075733915 -0.017773584
0.19387369 0.23631239 0.19603394 -0.26105282 -0.30528426 -0.14609866 0.089519694 -0.022655858
-0.35176665 -0.38105628 -0.18635207 -0.50003 -0.58725727 -0.084499076 0.03030375 0.043451734
-0.14409964 0.07921338 0.3640087 0.48912618 0.2403054 0.21056871 0.108645596 0.2773026
0.3985836 0.22698483 -0.015195252 0.23226039 0.077072255 -0.034839988 0.036116477 0.27754542
0.19772068 -0.19481811 0.0877383 -0.053933237 -0.12946023 -0.12121121 0.12537655 0.22111304
0.2656429 -0.009666691 0.26742804 -0.014975358 -0.01350026 0.36762816 0.3761053 0.35288277
0.14175165 0.1049165 -0.067255296 0.10263222 -0.21566051 -0.20727703 -0.19879442 -0.4189549
-0.4329075 -0.34404805 0.32360998 0.25780427 0.12115102 0.047881726 0.24950773 0.038683683

cnn.0.bias f4 [16]
00000000: 0f3e bb3b 20f1 693e fa74 fd3c 8d08 963e
00000010: b6d3 8d3c 0929 d2be 0270 c83e 7d58 5bbd
00000020: 10d2 2b3c 5a11 b03e 0665 423e be4a 9e3c
00000030: 9514 91be 12fb 073f 8659 1c3e f785 313e
0.005714185 0.22845888 0.030939568 0.293034 0.017312866 -0.41046932 0.39147955 -0.053551186
0.0104870945 0.34388238 0.1898385 0.01932275 -0.28336015 0.5311748 0.15268525 0.1733626

cnn.3.weight f4 [32, 16, 3, 3]
00000000: 237b 26be ac09 b3bd 01bf 98bd 74b9 0cbe
00000010: 4d45 86be aa04 78be ff80 803c a3f8 e43c
00000020: 7c4c 923d ebb2 a1bd f0f8 77bd 6a32 2fbc
00000030: f486 9fbd a083 5c3c d194 95bd cf93 5ebd
00000040: c78c f5bd 87ac 89bd 126e 203d b92c 433c
00000050: 003f 783c ae40 2f3d 68d4 93bc 306f 19bd
00000060: 78fc 4abe 1015 cfbd d97d e5bd 3082 043e
00000070: 8fb4 383e dd04 d43d bdb2 8c3d 27b7 de3d
00000080: c75a be3d fa92 86be 7c51 02be 661b f4bd
00000090: 17f2 e8bd c3c5 0cbe d4e5 3dbe 20b4 44bd
000000a0: e4e5 48bd ed46 213d 2664 7bbd 201c 00be
000000b0: 1307 20be 7842 593e 829d 573e b800 323e
000000c0: ac37 453e 8a97 833e 4e34 4b3e e818 433d
000000d0: e901 e63d 7d17 1a3e 5947 483e 4a54 4f3e
000000e0: 10b5 cb3d c197 093e 3fa2 b43d 76a0 7b3d
000000f0: 9c86 2a3d f17c 0e3e 7adc f53d 0344 463d
00000100: 3223 81bc ba6a 083e efd8 073e 6dad 813d
00000110: a443 fe3d 331f 38bd 040e 16be 6a48 f8bd
00000120: 4fe5 803e 64e3 003e f60f ec3d 04ef 5b3e
00000130: 099b 413e acb1 6e3e 8046 b6bc 4932 9abc
00000140: 01f7 aa3d c2b4 853d 93ba 113e d25a f13d
00000150: 7111 033e e6fc 4c3e dc41 393e 3b65 9dbd
00000160: 0363 aabd 4c11 a0bd f726 8b3d cbc9 673d
00000170: 1400 a63d 4b4d 34bc 7c81 4cbc c235 b0bd
00000180: 6269 03be add5 ebbd 8e52 19be 57d2 5fbc
00000190: 2517 1bbc 12cd 41bc 5f0b bf3c 5d28 803d
000001a0: f887 8ebc 8ad4 09bd 089f b4bd 385c bdbd
000001b0: 4d47 703e 80ed 8e3e ad29 8f3e 77e1 653d
000001c0: 0c13 5bbc ee57 6fbd a5aa 57be dc7f 52be
000001d0: 80d6 64be a9b3 563e 5bc1 563e 72f8 053e
000001e0: 141e 7e3e 51dd 4f3e 5e7c 813e ab5f 2abc
000001f0: f8a1 26bc 62dc f9bd 0655 193d 8e69 bdbb
00000200: 3c69 913d eed7 353d b413 233d 1031 053d
00000210: bb42 863c dcfe 203d fd0b fb3d abac afbc
00000220: c5ec 74bb ec0e 7b3d 907b df3c d37a ee3c
00000230: e02b 33bd a224 48be 67e7 16be c449 8dbe
00000240: 379e 253d cd9d d33b 4000 603d 8f24 073d
00000250: 9489 e83c a48d 983c 969a a93d 38bb 773d
00000260: 792b c0bc 62e1 19bd d5d3 9cbd 310c 073e
00000270: 22fc 8b3d 081d 453d f68e 3f3e f4ab 7f3e
00000280: 494f aa3e 9fa1 db3e 8cbb 63bd 01dc ba3d
00000290: f594 ea3d 41f2 41bd 1d1b b9bd 33af 05bd
000002a0: 2bbe 683e e429 d73e 50ff e53e 108a 4f3e
000002b0: 8823 0a3e aee8 5b3e ca3e 5bbd 821a 31bd
000002c0: 6afa cbbc 068b 083f a54d d83e 0731 023f
000002d0: 5a55 233d 604f 42bc 1a28 6cbd a51c 86b8
000002e0: 0938 c53c 4484 eebd 6950 3dbe 3247 b8bd
000002f0: 873c 40be 9c93 0abf 9637 8cbe 0925 95be
00000300: a389 1abe 74f7 f83c 7f36 073c accd 87bf
00000310: 95bd 4fbf cae0 4abf bc0d 31bc 4976 123d
00000320: 03fa 223e ce4e 60bd 5234 8f3d a570 083e
00000330: 8af3 f93e c808 e23e 7fc9 dc3e 80f5 3bbe
00000340: fdcd 52bc 0486 b1bd 6f88 ce3d 62e2 bb3d
00000350: bcdd 263e cd9f f83d dfb6 053e dc81 de3d
00000360: 4192 aebd 001a 50bd 22d9 26be a7fe 98be
00000370: 732a efbd 8eb2 93bd 9678 9f3e cd76 833e
00000380: 081e a13e 26eb 3ebe 94cc f6bd d239 80bd
00000390: eb99 b2be 76cc 4abe 6f88 98bd 4188 823e
000003a0: 996b b03e 8a30 ad3e 6bf1 ce3d 3196 01ba
000003b0: 163e 18be 6cd5 b4bd bd1b bc3d d264 803e
000003c0: 7189 d2be 30f3 dcbe 0469 ddbe d017 083e
000003d0: e497 8c3d 1667 8abd 33ee da39 7f1d 283e
000003e0: 70a3 993e 6471 9fbe a025 aebe 3681 b3be
000003f0: 74fe dbbe 4163 0bbe 3794 05be 7258 4ebe
-0.1625791 -0.08742079 -0.07458306 -0.1374262 -0.26224747 -0.24220529 0.01568651 0.02795059
0.071434945 -0.07895454 -0.06054014 -0.010693172 -0.07789412 0.013459116 -0.07303775 -0.05434018
-0.11989742 -0.0672236 0.03916747 0.011912518 0.015151739 0.042786293 -0.01804562 -0.037459552
-0.19822872 -0.10111439 -0.11205644 0.12940288 0.18037628 0.1035249 0.06870029 0.10874777
0.09294658 -0.2628401 -0.12726396 -0.11919288 -0.113743 -0.13747315 -0.18544704 -0.048023343
-0.049047366 0.03937428 -0.061374806 -0.12510729 -0.15627699 0.21216762 0.21056178 0.17383087
0.19259518 0.25701553 0.19844171 0.047631174 0.11230833 0.15048023 0.19558467 0.20246997
0.09946644 0.13436796 0.088200085 0.061432324 0.04163228 0.13914849 0.12004943 0.048404705
-0.015763853 0.13321963 0.13266347 0.063319065 0.12415245 -0.04495163 -0.14653784 -0.12123187
0.2517495 0.12586743 0.11526482 0.21477896 0.18906797 0.23309964 -0.022250414 -0.018822806
0.083478935 0.065286174 0.14231329 0.11784901 0.12799622 0.20018348 0.1809153 -0.07685324
-0.08319666 -0.07815799 0.06794541 0.05658893 0.08105484 -0.011004756 -0.012482043 -0.086040035
-0.12833169 -0.11515365 -0.14972898 -0.013660989 -0.009465967 -0.011828678 0.023320852 0.06257699
-0.01739882 -0.03364996 -0.08819395 -0.09246105 0.23464699 0.27915573 0.27961484 0.056123223
-0.01337124 -0.058433466 -0.2106119 -0.20556587 -0.2234745 0.20966972 0.20972197 0.13083056
0.24816161 0.2029927 0.25290197 -0.010398786 -0.010170452 -0.12200238 0.0374346 -0.0057804054
0.0710015 0.04439538 0.039813712 0.032517493 0.016389241 0.039305553 0.12258146 -0.02144464
-0.003737257 0.061293527 0.027280599 0.029111302 -0.043743014 -0.19545224 -0.1473671 -0.2759534
0.04043409 0.0064580203 0.05468774 0.03299385 0.028385915 0.018622227 0.08281438 0.06048128
-0.02345823 -0.037568457 -0.07657591 0.13188244 0.068352 0.04812339 0.18706879 0.24967939
0.33263615 0.42896745 -0.05559878 0.09123994 0.114541925 -0.047350172 -0.090383746 -0.032637786
0.22728793 0.42024148 0.4492135 0.2026751 0.13490117 0.21475479 -0.053526677 -0.04323817
-0.02489968 0.5333713 0.42246738 0.5085606 0.03987632 -0.011859745 -0.05765543 -6.3949534e-05
0.024074571 -0.116463214 -0.18487705 -0.089979544 -0.1877309 -0.54131484 -0.2738616 -0.29129818
-0.15091567 0.030391432 0.008252739 -1.0609641 -0.81148654 -0.7924925 -0.010806497 0.035757337
0.15915684 -0.054762654 0.06992401 0.1332422 0.48818618 0.44147325 0.4312248 -0.1835537
-0.012866494 -0.086681396 0.100846164 0.091740385 0.16295522 0.121398546 0.13058041 0.108646125
-0.085239895 -0.050806046 -0.16293767 -0.29881784 -0.116780184 -0.07211791 0.31146687 0.25676575
0.31468225 -0.1864439 -0.12050739 -0.06261028 -0.34883055 -0.19804558 -0.07447898 0.25494578
0.3445709 0.33826095 0.101046406 -0.000494334 -0.14867434 -0.088297695 0.09184978 0.2507692
-0.41120484 -0.43154287 -0.43244183 0.13290334 0.06864908 -0.06757943 0.00041757672 0.16417502
0.30007505 -0.31141198 -0.3401308 -0.35059518 -0.4296757 -0.13612081 -0.1304482 -0.20150927

cnn.3.bias f4 [32]
00000000: 62e9 45be a90b 143e 1222 b83d d2e0 80be
00000010: 1bcb 093d f9aa 4c3d d144 cabc 178f 67bd
00000020: d1e9 10bc 0be3 4fbe 130b 043f 78a6 13be
00000030: 8aa9 ba3e d173 283d d28a 0dbb d77d ae3e
00000040: 23be 45bd 2786 78be 7392 a4bd e72e 663d
00000050: 047f d9b1 9131 55bd f5f7 bc3d 3c18 8fbc
00000060: 226a cd3e c62b 9dbd 6baf aabd e3ca 663e
00000070: ae27 263e deef cabd 1a55 f53d 1fe3 273e
-0.1932731 0.14457573 0.089908734 -0.25171524 0.033640962 0.04996774 -0.024691017 -0.056532945
-0.008844809 -0.20301454 0.515794 -0.14418972 0.36457473 0.041126076 -0.0021597636 0.34080383
-0.04827703 -0.24269925 -0.080357455 0.056197073 -6.329971e-09 -0.052049223 0.092269816 -0.01746761
0.40120035 -0.07674365 -0.083342396 0.22538333 0.16226074 -0.09909032 0.119791225 0.16395234

fc.1.weight f4 [8, 32]
00000000: 9313 26be 8e77 51bd 6918 7a3e 7e73 f8bd
00000010: 3881 933e ff49 b3be 6ee3 c03d 0f36 fe3e
00000020: 3ef1 1fbe da0a e1bc ec25 9fbe d1b0 7b3e
00000030: 36f5 ddbe 9867 7b3e 7369 393d e8b4 9ebe
00000040: d146 8c3e 05a0 5c3e 2c3c 213e 6de7 ae3e
00000050: f2b4 8c3b 5c50 15be 737a 653d 5519 923e
00000060: 452d 173e 157c 913e 2c16 6abe eccf 023e
00000070: 6a7d 49be 57c2 3abe 7cda 1dbd 2acc 08be
00000080: 6c52 3fbe 17bc 85be 1e51 523e 8233 7fbf
00000090: 4705 b1bc f162 56be 9a73 a33d 86b1 4dbf
000000a0: 5743 8cbd ff5d 0ebe 7669 a13e c37f c0be
000000b0: 632c d13e c53e 333e 802c 51be f9db 883e
000000c0: 4eb9 d63d 1b44 4f3e 8c23 73be abe6 c43e
000000d0: 18f3 e83a d394 78be bbc1 ce3d d30f c7bd
000000e0: d3d1 e33e 1ed6 8bbe 29fa 85bc 680c ff3e
000000f0: 23e9 493e bfeb 09bd 3e8c 333e 0516 623d
00000100: 54ee 3ebd 7de8 4a3f 6796 9a3d 8390 75be
00000110: b265 c13d 781a 11be 9d41 f23e 5ce2 81be
00000120: 199a 9e3d e780 67bd 8c45 0abb 0208 063d
00000130: a57f 7a3e 855a 35be 9917 9a3e 95e5 36be
00000140: 064e c9bd 837a cabd c7b1 5f3d b4de 343e
00000150: 3d9d 273c 7a00 16be d892 44be 815e fb3e
00000160: 15f2 29bd 6e34 b6bb 74a3 2bbe 714b 65bd
00000170: 200c 883e 9cfd 50be db94 d4be 2b5a 39bd
00000180: b4f3 e33d 13a1 d1be a2e6 b5be 369b 853d
00000190: 3edd a43b e967 923e 2838 583e 6802 a93e
000001a0: 06c8 24bf 4ada 2cbe 9830 be3e 2b8b 92bd
000001b0: abea 21bd 533e ef3d b94c 94be 0fe7 473e
000001c0: ed8e b2be 7fe6 963e e515 373e 3bb0 bfbd
000001d0: 7e04 e1bc f70b 373e 80a3 46bd a437 cdbd
000001e0: 4c88 c3be 018d e4bd e85e a43d 8524 33be
000001f0: fe47 83bd d3e0 5dbe 3f75 883b 6bab 1bbe
00000200: f3f4 b83d 5f4f eebe 4749 9ebe 0e56 403e
00000210: b2cd 453d 2578 623b 7be5 58be 81b9 7ebe
00000220: 5ac4 0e3f f12e da3c 7621 ddbe 3444 583e
00000230: d3b4 c7be 53d2 7c3e 045d 12be 2dca 7b3d
00000240: 65c0 513e 6d7b ec3d f750 a53c 087b b9be
00000250: 1912 bcbc cbef 3cbe 2796 ee3d e7c1 9cbd
00000260: 3b9a 12be 864d c4bd b75d e23d 8ad9 d83d
00000270: 153c 5a3c 4b67 4f3e 0b6d a63e e02b 0dbe
00000280: ffb6 adbe a678 ef3d b600 4e3e a3ec 1e3f
00000290: 1256 b13e 1348 e03c 46cd 20be e805 c03c
000002a0: 792f 2b3e c429 dbbc 88d2 25be d11e ff3d
000002b0: 84c7 893e 192a ff3e c529 ccbc 694d 8fbe
000002c0: 753f 4d3e 1519 eb3e d47e 06bf 1da3 c2be
000002d0: b6c3 603b 11d5 bcbe 5bae 98be d406 1ebe
000002e0: 2ab9 3b3e 0b4b 2c3e 8134 92be 530c d83c
000002f0: 6f93 83be fbed 7c3c 5f8b 213d dc44 043e
00000300: 1b4a a43e 88e0 81be 47c0 0d3f 3df4 853e
00000310: 3a92 c6be 6e73 00be a34c 853d abe4 f9be
00000320: af09 663d 215b 313c acf6 3e3e 9ea5 11be
00000330: 1b26 063e 94ba 60bb 79ef 4ebe 0c99 243e
00000340: d473 2b3e 61e2 423e ffb4 113d 3590 dbbe
00000350: 9c6b 94ba b962 133e 333d f0be cda6 acbe
00000360: 1a10 07bf 7802 b1be 8600 473e 322a 25be
00000370: e3af 23bb dcd4 f93c 0bca 54bc 4c37 053e
00000380: f437 263e d90c 693c 2ffd f7be f9a5 003e
00000390: 921f 69be 77b7 2d3e bb72 fdbd be16 b33e
000003a0: 3ab8 ddbd 060f 9b3d 25f7 75be f88a 313d
000003b0: d57e 05bf 9696 abbe 1357 3dbe 8ba1 b2be
000003c0: defc 80be d874 34bf c1f8 323e 0989 0d3e
000003d0: a9d6 28bc 0d78 a93e 0277 b73d cdc2 9cbe
000003e0: 5740 4ebe 9b58 ffbb 5628 86bc b141 7e3b
000003f0: 96d2 a23e 14ae ac3d 71ef 3bbe d095 c23c
-0.16218404 -0.051139407 0.24423374 -0.121314034 0.28809524 -0.35017392 0.09418379 0.49650618
-0.1561937 -0.027470995 -0.3108362 0.24579169 -0.43351144 0.24551237 0.04526658 -0.30997396
0.2739778 0.21545418 0.1574561 0.3416094 0.0042940313 -0.14581436 0.05602498 0.28534952
0.14763363 0.2841498 -0.2286002 0.12774628 -0.19676748 -0.18238197 -0.03853844 -0.13359132
-0.18683785 -0.26120064 0.20538756 -0.9968797 -0.021608962 -0.2093618 0.079810336 -0.80349004
-0.068487816 -0.13903044 0.31525773 -0.37597474 0.40854177 0.17504413 -0.20427132 0.26730326
0.10484563 0.20240824 -0.23744029 0.38457236 0.0017772643 -0.24275522 0.10095545 -0.09719815
0.4449602 -0.27311796 -0.016354637 0.49814153 0.19717841 -0.03367209 0.17533967 0.05519678
-0.046614006 0.79261 0.07548218 -0.23980908 0.09443225 -0.14170253 0.47315684 -0.2536801
0.077442355 -0.056519415 -0.0021098582 0.03272248 0.24462755 -0.17710312 0.3009613 -0.17861016
-0.09829335 -0.098866485 0.0546129 0.1766308 0.01023036 -0.1464862 -0.19196641 0.49095538
-0.041490633 -0.0055604493 -0.16761571 -0.05598015 0.2657175 -0.20409244 -0.41519818 -0.045252007
0.11130467 -0.40943202 -0.3552752 0.06523745 0.005031257 0.28594902 0.21115172 0.33009648
-0.6436771 -0.16880146 0.3714645 -0.071554504 -0.039530437 0.11681809 -0.28964785 0.19521736
-0.3487467 0.2947273 0.17879446 -0.09359785 -0.027467962 0.17875658 -0.04849577 -0.10020378
-0.38189924 -0.11159707 0.080259144 -0.174944 -0.06410216 -0.21667795 0.0041643674 -0.1520211
0.09031095 -0.4654493 -0.3091528 0.18782827 0.04829187 0.0034556475 -0.2118129 -0.24875452
0.5576836 0.026633712 -0.4318959 0.21119767 -0.39005145 0.24689607 -0.14293295 0.061472107
0.20483549 0.11546979 0.020180209 -0.36226678 -0.022957848 -0.18450849 0.11649733 -0.076541714
-0.14316647 -0.09585099 0.11053031 0.10588367 0.013319989 0.20254247 0.32505068 -0.13786268
-0.33928677 0.11692934 0.20117459 0.6207983 0.3463598 0.027378118 -0.15703306 0.023440316
0.16717328 -0.026753314 -0.16193593 0.1245705 0.2691003 0.49836805 -0.024922261 -0.27988747
0.20043738 0.45917574 -0.52537274 -0.3801507 0.003429634 -0.36881307 -0.29820523 -0.15432292
0.18332353 0.16825502 -0.28555682 0.026373064 -0.2569842 0.015437598 0.039439555 0.12916893
0.32087788 -0.25366616 0.55371517 0.26162902 -0.38783437 -0.12544033 0.06508758 -0.48807272
0.05616158 0.0108249495 0.18648785 -0.14223334 0.13100474 -0.0034290897 -0.20208539 0.16074008
0.16743404 0.19031669 0.035573002 -0.4288346 -0.0011323574 0.14393128 -0.4692169 -0.3372101
-0.52758944 -0.34572196 0.19433793 -0.16129377 -0.0024976663 0.030497007 -0.012987624 0.13009375
0.16232282 0.0142242545 -0.4843535 0.12563314 -0.2276595 0.16964518 -0.12375399 0.34978288
-0.10826154 0.07571225 -0.2402006 0.04334542 -0.52146655 -0.33513325 -0.18490247 -0.34888873
-0.25192922 -0.7049079 0.17477705 0.13821806 -0.010305085 0.33099404 0.08958246 -0.3061737
-0.20141731 -0.007792545 -0.016376656 0.003879648 0.3180129 0.0843164 -0.18353058 0.023753077

fc.1.bias f4 [8]
00000000: cb9b 13bd fe10 e13d 35c4 4a3e 2441 c2bd
00000010: cb94 74bd 0d5c 13be b83d 99bc e28d 07bd
-0.036037248 0.10989569 0.1980141 -0.09485081 -0.059712213 -0.14390583 -0.018706188 -0.033094294
